==================================================
Algorithm: FedAvg
Local batch size: 64
Goal: _nc50
Local epochs: 1
Local learing rate: 0.01
Local learing rate decay: False
Total number of clients: 50
Clients join in each round: 1.0
Clients randomly join: False
Client activity rate: 0.6
Cuda device id: 0
==================================================

============= Running time: 0th =============
Creating server and clients ...
MicroViT(
  (stages): Sequential(
    (0): StemLayer(
      (stem): Sequential(
        (0): Sequential(
          (0): Conv2d_BN(
            (c): Conv2d(1, 64, kernel_size=(3, 3), stride=(2, 2), padding=(1, 1), bias=False)
            (bn): BatchNorm2d(64, eps=1e-05, momentum=0.1, affine=True, track_running_stats=True)
          )
          (1): GELU(approximate='none')
        )
        (1): Sequential(
          (0): Conv2d_BN(
            (c): Conv2d(64, 128, kernel_size=(3, 3), stride=(2, 2), padding=(1, 1), bias=False)
            (bn): BatchNorm2d(128, eps=1e-05, momentum=0.1, affine=True, track_running_stats=True)
          )
          (1): GELU(approximate='none')
        )
      )
    )
    (1): Stage(
      (blocks): Sequential(
        (0): Block(
          (block): Sequential(
            (0): Residual(
              (m): Conv2d_BN(
                (c): Conv2d(128, 128, kernel_size=(3, 3), stride=(1, 1), padding=(1, 1), groups=128, bias=False)
                (bn): BatchNorm2d(128, eps=1e-05, momentum=0.1, affine=True, track_running_stats=True)
              )
            )
            (1): Residual(
              (m): FFN(
                (pw1): Conv2d_BN(
                  (c): Conv2d(128, 256, kernel_size=(1, 1), stride=(1, 1), bias=False)
                  (bn): BatchNorm2d(256, eps=1e-05, momentum=0.1, affine=True, track_running_stats=True)
                )
                (act): GELU(approximate='none')
                (pw2): Conv2d_BN(
                  (c): Conv2d(256, 128, kernel_size=(1, 1), stride=(1, 1), bias=False)
                  (bn): BatchNorm2d(128, eps=1e-05, momentum=0.1, affine=True, track_running_stats=True)
                )
              )
            )
          )
        )
        (1): Block(
          (block): Sequential(
            (0): Residual(
              (m): Conv2d_BN(
                (c): Conv2d(128, 128, kernel_size=(3, 3), stride=(1, 1), padding=(1, 1), groups=128, bias=False)
                (bn): BatchNorm2d(128, eps=1e-05, momentum=0.1, affine=True, track_running_stats=True)
              )
            )
            (1): Residual(
              (m): FFN(
                (pw1): Conv2d_BN(
                  (c): Conv2d(128, 256, kernel_size=(1, 1), stride=(1, 1), bias=False)
                  (bn): BatchNorm2d(256, eps=1e-05, momentum=0.1, affine=True, track_running_stats=True)
                )
                (act): GELU(approximate='none')
                (pw2): Conv2d_BN(
                  (c): Conv2d(256, 128, kernel_size=(1, 1), stride=(1, 1), bias=False)
                  (bn): BatchNorm2d(128, eps=1e-05, momentum=0.1, affine=True, track_running_stats=True)
                )
              )
            )
          )
        )
      )
    )
    (2): PatchMerging(
      (token_mix): Sequential(
        (0): Conv2d_BN(
          (c): Conv2d(128, 128, kernel_size=(3, 3), stride=(2, 2), padding=(1, 1), groups=128, bias=False)
          (bn): BatchNorm2d(128, eps=1e-05, momentum=0.1, affine=True, track_running_stats=True)
        )
        (1): GELU(approximate='none')
        (2): Conv2d_BN(
          (c): Conv2d(128, 256, kernel_size=(1, 1), stride=(1, 1), bias=False)
          (bn): BatchNorm2d(256, eps=1e-05, momentum=0.1, affine=True, track_running_stats=True)
        )
      )
      (channel_mix): Residual(
        (m): Sequential(
          (0): Conv2d_BN(
            (c): Conv2d(256, 512, kernel_size=(1, 1), stride=(1, 1), bias=False)
            (bn): BatchNorm2d(512, eps=1e-05, momentum=0.1, affine=True, track_running_stats=True)
          )
          (1): GELU(approximate='none')
          (2): Conv2d_BN(
            (c): Conv2d(512, 256, kernel_size=(1, 1), stride=(1, 1), bias=False)
            (bn): BatchNorm2d(256, eps=1e-05, momentum=0.1, affine=True, track_running_stats=True)
          )
        )
      )
    )
    (3): Sequential(
      (0): Residual(
        (m): Conv2d_BN(
          (c): Conv2d(256, 256, kernel_size=(3, 3), stride=(1, 1), padding=(1, 1), groups=256, bias=False)
          (bn): BatchNorm2d(256, eps=1e-05, momentum=0.1, affine=True, track_running_stats=True)
        )
      )
      (1): Residual(
        (m): FFN(
          (pw1): Conv2d_BN(
            (c): Conv2d(256, 512, kernel_size=(1, 1), stride=(1, 1), bias=False)
            (bn): BatchNorm2d(512, eps=1e-05, momentum=0.1, affine=True, track_running_stats=True)
          )
          (act): GELU(approximate='none')
          (pw2): Conv2d_BN(
            (c): Conv2d(512, 256, kernel_size=(1, 1), stride=(1, 1), bias=False)
            (bn): BatchNorm2d(256, eps=1e-05, momentum=0.1, affine=True, track_running_stats=True)
          )
        )
      )
    )
    (4): Stage(
      (blocks): Sequential(
        (0): Block(
          (block): Sequential(
            (0): Residual(
              (m): Conv2d_BN(
                (c): Conv2d(256, 256, kernel_size=(3, 3), stride=(1, 1), padding=(1, 1), groups=256, bias=False)
                (bn): BatchNorm2d(256, eps=1e-05, momentum=0.1, affine=True, track_running_stats=True)
              )
            )
            (1): Residual(
              (m): FFN(
                (pw1): Conv2d_BN(
                  (c): Conv2d(256, 512, kernel_size=(1, 1), stride=(1, 1), bias=False)
                  (bn): BatchNorm2d(512, eps=1e-05, momentum=0.1, affine=True, track_running_stats=True)
                )
                (act): GELU(approximate='none')
                (pw2): Conv2d_BN(
                  (c): Conv2d(512, 256, kernel_size=(1, 1), stride=(1, 1), bias=False)
                  (bn): BatchNorm2d(256, eps=1e-05, momentum=0.1, affine=True, track_running_stats=True)
                )
              )
            )
          )
        )
        (1): Block(
          (block): Sequential(
            (0): Residual(
              (m): Conv2d_BN(
                (c): Conv2d(256, 256, kernel_size=(3, 3), stride=(1, 1), padding=(1, 1), groups=256, bias=False)
                (bn): BatchNorm2d(256, eps=1e-05, momentum=0.1, affine=True, track_running_stats=True)
              )
            )
            (1): Residual(
              (m): FFN(
                (pw1): Conv2d_BN(
                  (c): Conv2d(256, 512, kernel_size=(1, 1), stride=(1, 1), bias=False)
                  (bn): BatchNorm2d(512, eps=1e-05, momentum=0.1, affine=True, track_running_stats=True)
                )
                (act): GELU(approximate='none')
                (pw2): Conv2d_BN(
                  (c): Conv2d(512, 256, kernel_size=(1, 1), stride=(1, 1), bias=False)
                  (bn): BatchNorm2d(256, eps=1e-05, momentum=0.1, affine=True, track_running_stats=True)
                )
              )
            )
          )
        )
        (2): Block(
          (block): Sequential(
            (0): Residual(
              (m): Conv2d_BN(
                (c): Conv2d(256, 256, kernel_size=(3, 3), stride=(1, 1), padding=(1, 1), groups=256, bias=False)
                (bn): BatchNorm2d(256, eps=1e-05, momentum=0.1, affine=True, track_running_stats=True)
              )
            )
            (1): Residual(
              (m): FFN(
                (pw1): Conv2d_BN(
                  (c): Conv2d(256, 512, kernel_size=(1, 1), stride=(1, 1), bias=False)
                  (bn): BatchNorm2d(512, eps=1e-05, momentum=0.1, affine=True, track_running_stats=True)
                )
                (act): GELU(approximate='none')
                (pw2): Conv2d_BN(
                  (c): Conv2d(512, 256, kernel_size=(1, 1), stride=(1, 1), bias=False)
                  (bn): BatchNorm2d(256, eps=1e-05, momentum=0.1, affine=True, track_running_stats=True)
                )
              )
            )
          )
        )
        (3): Block(
          (block): Sequential(
            (0): Residual(
              (m): Conv2d_BN(
                (c): Conv2d(256, 256, kernel_size=(3, 3), stride=(1, 1), padding=(1, 1), groups=256, bias=False)
                (bn): BatchNorm2d(256, eps=1e-05, momentum=0.1, affine=True, track_running_stats=True)
              )
            )
            (1): Residual(
              (m): FFN(
                (pw1): Conv2d_BN(
                  (c): Conv2d(256, 512, kernel_size=(1, 1), stride=(1, 1), bias=False)
                  (bn): BatchNorm2d(512, eps=1e-05, momentum=0.1, affine=True, track_running_stats=True)
                )
                (act): GELU(approximate='none')
                (pw2): Conv2d_BN(
                  (c): Conv2d(512, 256, kernel_size=(1, 1), stride=(1, 1), bias=False)
                  (bn): BatchNorm2d(256, eps=1e-05, momentum=0.1, affine=True, track_running_stats=True)
                )
              )
            )
          )
        )
        (4): Block(
          (block): Sequential(
            (0): Residual(
              (m): Conv2d_BN(
                (c): Conv2d(256, 256, kernel_size=(3, 3), stride=(1, 1), padding=(1, 1), groups=256, bias=False)
                (bn): BatchNorm2d(256, eps=1e-05, momentum=0.1, affine=True, track_running_stats=True)
              )
            )
            (1): Residual(
              (m): FFN(
                (pw1): Conv2d_BN(
                  (c): Conv2d(256, 512, kernel_size=(1, 1), stride=(1, 1), bias=False)
                  (bn): BatchNorm2d(512, eps=1e-05, momentum=0.1, affine=True, track_running_stats=True)
                )
                (act): GELU(approximate='none')
                (pw2): Conv2d_BN(
                  (c): Conv2d(512, 256, kernel_size=(1, 1), stride=(1, 1), bias=False)
                  (bn): BatchNorm2d(256, eps=1e-05, momentum=0.1, affine=True, track_running_stats=True)
                )
              )
            )
          )
        )
      )
    )
    (5): PatchMerging(
      (token_mix): Sequential(
        (0): Conv2d_BN(
          (c): Conv2d(256, 256, kernel_size=(3, 3), stride=(2, 2), padding=(1, 1), groups=256, bias=False)
          (bn): BatchNorm2d(256, eps=1e-05, momentum=0.1, affine=True, track_running_stats=True)
        )
        (1): GELU(approximate='none')
        (2): Conv2d_BN(
          (c): Conv2d(256, 320, kernel_size=(1, 1), stride=(1, 1), bias=False)
          (bn): BatchNorm2d(320, eps=1e-05, momentum=0.1, affine=True, track_running_stats=True)
        )
      )
      (channel_mix): Residual(
        (m): Sequential(
          (0): Conv2d_BN(
            (c): Conv2d(320, 640, kernel_size=(1, 1), stride=(1, 1), bias=False)
            (bn): BatchNorm2d(640, eps=1e-05, momentum=0.1, affine=True, track_running_stats=True)
          )
          (1): GELU(approximate='none')
          (2): Conv2d_BN(
            (c): Conv2d(640, 320, kernel_size=(1, 1), stride=(1, 1), bias=False)
            (bn): BatchNorm2d(320, eps=1e-05, momentum=0.1, affine=True, track_running_stats=True)
          )
        )
      )
    )
    (6): Sequential(
      (0): Residual(
        (m): Conv2d_BN(
          (c): Conv2d(320, 320, kernel_size=(3, 3), stride=(1, 1), padding=(1, 1), groups=320, bias=False)
          (bn): BatchNorm2d(320, eps=1e-05, momentum=0.1, affine=True, track_running_stats=True)
        )
      )
      (1): Residual(
        (m): FFN(
          (pw1): Conv2d_BN(
            (c): Conv2d(320, 640, kernel_size=(1, 1), stride=(1, 1), bias=False)
            (bn): BatchNorm2d(640, eps=1e-05, momentum=0.1, affine=True, track_running_stats=True)
          )
          (act): GELU(approximate='none')
          (pw2): Conv2d_BN(
            (c): Conv2d(640, 320, kernel_size=(1, 1), stride=(1, 1), bias=False)
            (bn): BatchNorm2d(320, eps=1e-05, momentum=0.1, affine=True, track_running_stats=True)
          )
        )
      )
    )
    (7): Stage(
      (blocks): Sequential(
        (0): Block(
          (block): Sequential(
            (0): Residual(
              (m): LRSHA(
                (pre_norm): GroupNorm(1, 320, eps=1e-05, affine=True)
                (in_proj): Conv2d_BN(
                  (c): Conv2d(320, 352, kernel_size=(3, 3), stride=(1, 1), padding=(1, 1), groups=32, bias=False)
                  (bn): BatchNorm2d(352, eps=1e-05, momentum=0.1, affine=True, track_running_stats=True)
                )
                (k): Identity()
                (v): Identity()
                (out_proj): Sequential(
                  (0): ReLU()
                  (1): Conv2d_BN(
                    (c): Conv2d(320, 320, kernel_size=(1, 1), stride=(1, 1), bias=False)
                    (bn): BatchNorm2d(320, eps=1e-05, momentum=0.1, affine=True, track_running_stats=True)
                  )
                )
              )
            )
            (1): Residual(
              (m): FFN(
                (pw1): Conv2d_BN(
                  (c): Conv2d(320, 640, kernel_size=(1, 1), stride=(1, 1), bias=False)
                  (bn): BatchNorm2d(640, eps=1e-05, momentum=0.1, affine=True, track_running_stats=True)
                )
                (act): GELU(approximate='none')
                (pw2): Conv2d_BN(
                  (c): Conv2d(640, 320, kernel_size=(1, 1), stride=(1, 1), bias=False)
                  (bn): BatchNorm2d(320, eps=1e-05, momentum=0.1, affine=True, track_running_stats=True)
                )
              )
            )
          )
        )
        (1): Block(
          (block): Sequential(
            (0): Residual(
              (m): LRSHA(
                (pre_norm): GroupNorm(1, 320, eps=1e-05, affine=True)
                (in_proj): Conv2d_BN(
                  (c): Conv2d(320, 352, kernel_size=(3, 3), stride=(1, 1), padding=(1, 1), groups=32, bias=False)
                  (bn): BatchNorm2d(352, eps=1e-05, momentum=0.1, affine=True, track_running_stats=True)
                )
                (k): Identity()
                (v): Identity()
                (out_proj): Sequential(
                  (0): ReLU()
                  (1): Conv2d_BN(
                    (c): Conv2d(320, 320, kernel_size=(1, 1), stride=(1, 1), bias=False)
                    (bn): BatchNorm2d(320, eps=1e-05, momentum=0.1, affine=True, track_running_stats=True)
                  )
                )
              )
            )
            (1): Residual(
              (m): FFN(
                (pw1): Conv2d_BN(
                  (c): Conv2d(320, 640, kernel_size=(1, 1), stride=(1, 1), bias=False)
                  (bn): BatchNorm2d(640, eps=1e-05, momentum=0.1, affine=True, track_running_stats=True)
                )
                (act): GELU(approximate='none')
                (pw2): Conv2d_BN(
                  (c): Conv2d(640, 320, kernel_size=(1, 1), stride=(1, 1), bias=False)
                  (bn): BatchNorm2d(320, eps=1e-05, momentum=0.1, affine=True, track_running_stats=True)
                )
              )
            )
          )
        )
        (2): Block(
          (block): Sequential(
            (0): Residual(
              (m): LRSHA(
                (pre_norm): GroupNorm(1, 320, eps=1e-05, affine=True)
                (in_proj): Conv2d_BN(
                  (c): Conv2d(320, 352, kernel_size=(3, 3), stride=(1, 1), padding=(1, 1), groups=32, bias=False)
                  (bn): BatchNorm2d(352, eps=1e-05, momentum=0.1, affine=True, track_running_stats=True)
                )
                (k): Identity()
                (v): Identity()
                (out_proj): Sequential(
                  (0): ReLU()
                  (1): Conv2d_BN(
                    (c): Conv2d(320, 320, kernel_size=(1, 1), stride=(1, 1), bias=False)
                    (bn): BatchNorm2d(320, eps=1e-05, momentum=0.1, affine=True, track_running_stats=True)
                  )
                )
              )
            )
            (1): Residual(
              (m): FFN(
                (pw1): Conv2d_BN(
                  (c): Conv2d(320, 640, kernel_size=(1, 1), stride=(1, 1), bias=False)
                  (bn): BatchNorm2d(640, eps=1e-05, momentum=0.1, affine=True, track_running_stats=True)
                )
                (act): GELU(approximate='none')
                (pw2): Conv2d_BN(
                  (c): Conv2d(640, 320, kernel_size=(1, 1), stride=(1, 1), bias=False)
                  (bn): BatchNorm2d(320, eps=1e-05, momentum=0.1, affine=True, track_running_stats=True)
                )
              )
            )
          )
        )
        (3): Block(
          (block): Sequential(
            (0): Residual(
              (m): LRSHA(
                (pre_norm): GroupNorm(1, 320, eps=1e-05, affine=True)
                (in_proj): Conv2d_BN(
                  (c): Conv2d(320, 352, kernel_size=(3, 3), stride=(1, 1), padding=(1, 1), groups=32, bias=False)
                  (bn): BatchNorm2d(352, eps=1e-05, momentum=0.1, affine=True, track_running_stats=True)
                )
                (k): Identity()
                (v): Identity()
                (out_proj): Sequential(
                  (0): ReLU()
                  (1): Conv2d_BN(
                    (c): Conv2d(320, 320, kernel_size=(1, 1), stride=(1, 1), bias=False)
                    (bn): BatchNorm2d(320, eps=1e-05, momentum=0.1, affine=True, track_running_stats=True)
                  )
                )
              )
            )
            (1): Residual(
              (m): FFN(
                (pw1): Conv2d_BN(
                  (c): Conv2d(320, 640, kernel_size=(1, 1), stride=(1, 1), bias=False)
                  (bn): BatchNorm2d(640, eps=1e-05, momentum=0.1, affine=True, track_running_stats=True)
                )
                (act): GELU(approximate='none')
                (pw2): Conv2d_BN(
                  (c): Conv2d(640, 320, kernel_size=(1, 1), stride=(1, 1), bias=False)
                  (bn): BatchNorm2d(320, eps=1e-05, momentum=0.1, affine=True, track_running_stats=True)
                )
              )
            )
          )
        )
        (4): Block(
          (block): Sequential(
            (0): Residual(
              (m): LRSHA(
                (pre_norm): GroupNorm(1, 320, eps=1e-05, affine=True)
                (in_proj): Conv2d_BN(
                  (c): Conv2d(320, 352, kernel_size=(3, 3), stride=(1, 1), padding=(1, 1), groups=32, bias=False)
                  (bn): BatchNorm2d(352, eps=1e-05, momentum=0.1, affine=True, track_running_stats=True)
                )
                (k): Identity()
                (v): Identity()
                (out_proj): Sequential(
                  (0): ReLU()
                  (1): Conv2d_BN(
                    (c): Conv2d(320, 320, kernel_size=(1, 1), stride=(1, 1), bias=False)
                    (bn): BatchNorm2d(320, eps=1e-05, momentum=0.1, affine=True, track_running_stats=True)
                  )
                )
              )
            )
            (1): Residual(
              (m): FFN(
                (pw1): Conv2d_BN(
                  (c): Conv2d(320, 640, kernel_size=(1, 1), stride=(1, 1), bias=False)
                  (bn): BatchNorm2d(640, eps=1e-05, momentum=0.1, affine=True, track_running_stats=True)
                )
                (act): GELU(approximate='none')
                (pw2): Conv2d_BN(
                  (c): Conv2d(640, 320, kernel_size=(1, 1), stride=(1, 1), bias=False)
                  (bn): BatchNorm2d(320, eps=1e-05, momentum=0.1, affine=True, track_running_stats=True)
                )
              )
            )
          )
        )
      )
    )
  )
  (avgpool_pre_head): AdaptiveAvgPool2d(output_size=1)
  (fc): Classfier(
    (classifier): BN_Linear(
      (bn): BatchNorm1d(320, eps=1e-05, momentum=0.1, affine=True, track_running_stats=True)
      (l): Linear(in_features=320, out_features=10, bias=True)
    )
  )
)

Join ratio / total clients: 1.0 / 50
Finished creating server and clients.

-------------Round number: 0-------------

Evaluate global model
Averaged Train Loss: 2.3025
Averaged Test Accurancy: 0.0962
Averaged Test AUC: 0.5116
Std Test Accurancy: 0.1658
Std Test AUC: 0.1845
------------------------- time cost ------------------------- 17.845849990844727
…
